saved_model.pth (torch, 973327 bytes, 8 tensors)

fc1.weight f4 [256, 784]
00000000: c0e0 79bc d7c8 9f3c ff85 65bc 6797 a6bc
00000010: cd1c 503c be94 d53c 9978 003d f4ad 6dbc
00000020: 2913 153b c576 bfbc 0a2f 973b 5f22 8e3c
00000030: 885d 6a3c 7ee3 f93c 7872 72bc 7adb 05bc
00000040: ad96 07bc ac55 d13c 7141 8abc f408 edbc
00000050: c0b0 af3b c47c 0b3d 1d7f cbbc 7ecc aa3c
00000060: fb4f de3c 6a6a 523c b933 9bbb fee4 00bd
00000070: f961 0ebd 119e 4fbc 6302 eebc 3fc5 bb3c
00000080: b401 923c 99ca 13bc da4c 82bc f353 e0bc
00000090: 1119 b2bb 7994 d83c 96dd 82bb 46a8 b13c
000000a0: b09f ebbc 1607 aebc 6f27 ffbc 08be 873c
000000b0: c679 363c b73e 9a3c f5b7 423c dbfc d3bb
000000c0: 3cd3 05bc 122c 103d a255 07ba bb1b 01bd
000000d0: 6bba 7dbc 95f0 d13b 85cb 873c 591f d63c
000000e0: 1968 c6bc 0ee8 053d e509 e33a 1822 103d
000000f0: de0d 883c cc40 09bd 7d4e 24bb c81f bfbb
00000100: c4bc f03b fb80 d53b 8d07 183c 920e 3e3d
00000110: a400 f83b 5c8d 9e3c ff55 653c 8fad 833a
00000120: dfc5 e7bc 2ed8 243c 7071 02bd ca0a 543b
00000130: cdb8 133b 198c 5cbc 871a 653c fa56 9ebc
00000140: c543 0cbd 6d1c 473c fdca 68bc 9662 aabc
00000150: 3a4d 9e3b 421d de3c bf48 313b 1893 a2bc
00000160: 4a77 a23b 4512 a6bc ec40 a73c 5b13 be3c
00000170: a136 8e3d 8212 a73d a927 193e 07df 5c3e
00000180: db7f 0b3e 9a38 0f3e 7dcc 773d ac04 843b
00000190: 120d 31ba e860 61bd 34a3 93bc b7d9 a0bb
000001a0: 488d cebb be9a d23a c134 26bd c186 753c
000001b0: 3f7d 4f3c c5bb 133d 80d7 0a3d 1d83 68bc
000001c0: 5404 4e3c e706 b33b 1b0c cc3c 4fa2 963c
000001d0: 44b8 8fbc 8732 5b3c 94a0 713d aa1c d23d
000001e0: 1a1b d73d 74cc 1c3e 13e6 863e 5dbd 9e3e
000001f0: bf6a 9c3e b0d7 703e 57d5 273e d83d 793d
00000200: 9ce2 a23c 7278 6dbd 6495 7bbd f04b f8bc
00000210: 3ad3 25bd 47dc 12bd e8f7 0cbc 3043 8fbc
00000220: c5bb 483c 0275 a13c 4ea6 34bc f5ac 643c
00000230: 0556 ffbc 5766 f93c 03a1 3a3c 2ef7 0a3d
00000240: adf3 19bb 3b31 603d 830e e63d f6cf e73d
00000250: 5cd0 2c3e 9a71 403e db64 913e 2e25 713e
00000260: 5eb2 873e ee38 223e 22f3 c43b 48e4 d4bb
00000270: b0e6 823d b316 5abd 54c3 babd c2b5 22bd
00000280: b147 7fbd 6616 44bd 810e 60bd ec61 d7bc
00000290: 7d26 60bc aecd f73c 2fcb cd3c dab1 b9bc
000002a0: 6a21 4ebc 0b6a fabc 3d0f 6e3b 99e6 04bc
000002b0: 8477 0ebb 8b5d a33d c28e 0c3e d4d5 0f3e
000002c0: 8fc1 833d d26d 843d 3bdf d03d 5acc 0e3d
000002d0: 5e61 a33c 5108 083d ab9d e6bd 8fe2 3ebe
000002e0: 12a0 34bd d120 13be 1afb d9bd 2f5f dbbd
000002f0: 6957 04bd f977 86bd 61b8 9abc 7c1b 78bd
00000300: 7778 70bd b428 24bd e368 bf3c f942 f1bc
00000310: 49c1 b2bc 9890 ac39 e54c c3b9 ccbc da3c
00000320: 38fa 5f3d ce05 003d 161f 833d 4d5b 8c3c
00000330: 3519 a5bc 5490 8a3b 469d 49bd 51b0 12bd
00000340: beb2 8bbd c2ab a93c 577f bebd 0353 58be
00000350: 7846 ccbc 219f c93c cb21 31bd 238d 77bd
00000360: 5f45 03be 2da7 0bbe f69b dabd 7bb9 00be
00000370: 2be1 65bd 7b11 823c a3a0 cf3c 64a3 4dbc
00000380: 68a3 943c 395d 9dbc 4e6b 973c 001b aa3c
00000390: cf65 e93c 7c93 6b3d f78c 8d3c 12e5 56bd
000003a0: 6ad7 b3bd 843f 8dbc 7b5e 8fbd 177b 0abe
000003b0: 2b38 2dbe 65a8 9ebd eac3 c139 c624 223c
000003c0: 2710 203e 90bd 483e d13c e3bc 5452 3abe
000003d0: 4c39 77be fdf5 3bbe 3cb7 bdbd f6fc 0abe
000003e0: b8ed a0bd 5d35 8d3a 5029 71bc 2b00 13bc
000003f0: c979 123d fa59 6ebc bda0 76bc 43ac 07bd
-0.0152513385 0.019504948 -0.014008998 -0.020335866 0.012702179 0.026071902 0.03136501 -0.014506806
0.0022747016 -0.023372063 0.004613762 0.017350374 0.014304526 0.030503985 -0.014797799 -0.008170003
-0.00827567 0.025553547 -0.016876908 -0.028934933 0.0053616464 0.034054533 -0.024840886 0.020849463
0.027137747 0.012842754 -0.0047363904 -0.031468384 -0.034761403 -0.012671963 -0.029053872 0.022921203
0.017823078 -0.009020471 -0.015905786 -0.02738378 -0.005435117 0.026437985 -0.0039937003 0.021686684
-0.028762668 -0.021243613 -0.031146733 0.016570106 0.0111374315 0.018828733 0.011884679 -0.0064693517
-0.008168038 0.03519828 -0.00051626016 -0.031520586 -0.01548634 0.0064068534 0.016576538 0.026137995
-0.02421956 0.032692008 0.0017321674 0.035188764 0.016608175 -0.03350906 -0.0025071197 -0.005832646
0.0073467214 0.00651562 0.009279144 0.046400614 0.0075684357 0.019354515 0.013997554 0.0010046231
-0.028292594 0.010061307 -0.031846464 0.0032355064 0.002254057 -0.013461136 0.013983375 -0.019328583
-0.034244318 0.012152773 -0.014208552 -0.020798963 0.0048309835 0.02711356 0.0027051417 -0.01984553
0.004958068 -0.020272383 0.0204167 0.023202589 0.069440134 0.08157827 0.14956535 0.21569453
0.13622992 0.13986436 0.06049775 0.0040288772 -0.0006753962 -0.055024058 -0.018022157 -0.004908766
-0.006303463 0.0016067845 -0.040577654 0.014985741 0.012664138 0.036067743 0.033896923 -0.014191416
0.012574274 0.0054634693 0.024908116 0.018387942 -0.01754392 0.013378746 0.05899103 0.102593735
0.10503216 0.15312368 0.26347408 0.31003848 0.3055019 0.23519778 0.16389976 0.060849994
0.019883446 -0.057976194 -0.061421767 -0.030309647 -0.040484644 -0.035854604 -0.008604027 -0.017488092
0.012251799 0.019709114 -0.011025978 0.013957252 -0.031168947 0.030444307 0.011390927 0.033927135
-0.002349119 0.05473445 0.11233237 0.11318962 0.16876358 0.18793336 0.2839726 0.23549339
0.2650327 0.1584203 0.006010429 -0.00649694 0.063916564 -0.053244304 -0.09119287 -0.03972412
-0.06232423 -0.047872923 -0.054701332 -0.02629181 -0.013681051 0.030249443 0.0251213 -0.022667814
-0.012581209 -0.030568143 0.0036325 -0.008111619 -0.0021738717 0.07976826 0.13726333 0.14046413
0.06433403 0.06466259 0.10198828 0.034862854 0.01994389 0.033211056 -0.112605415 -0.18641113
-0.044097967 -0.14367987 -0.10643597 -0.10711514 -0.032309923 -0.06565852 -0.018886747 -0.060573086
-0.058708634 -0.04007788 0.023365444 -0.02945088 -0.021820681 0.00032914127 -0.0003725059 0.026701353
0.054681987 0.031255536 0.064024135 0.01713338 -0.020153621 0.004228631 -0.049222253 -0.03581268
-0.06821202 0.020711783 -0.09301632 -0.21125416 -0.024935946 0.024612011 -0.043245118 -0.060437333
-0.12819432 -0.13637991 -0.106742784 -0.12570755 -0.05612294 0.015877476 0.025345152 -0.012551162
0.018144324 -0.019209491 0.018483784 0.020764828 0.028490929 0.0575137 0.017279131 -0.052464552
-0.08781321 -0.0172422 -0.070004426 -0.13523518 -0.16915958 -0.077469625 0.00036957796 0.009896463
0.15631162 0.19603562 -0.02773896 -0.18195468 -0.24142951 -0.18355556 -0.09263465 -0.1357306
-0.07857841 0.001077335 -0.014719322 -0.008972208 0.035760675 -0.014547819 -0.015052971 -0.033123266

fc1.bias f4 [256]
00000000: 6e61 5e3c aab8 ff3b 7abd ea3b 692c 89ba
00000010: 95eb 543c 9c82 e5bc 4dd3 0dbd 043c bd3c
00000020: fdbb 9fbb 2da4 4e3c d10e 603c 7506 9e3b
00000030: d2b4 e63c d400 8abc cc40 05bd d544 1ebc
00000040: 2cc8 1dbd 3201 03bd 8598 04bd 8b26 d1bc
00000050: f7fe f7bc b608 c1bb a57b 95bc 66f8 203c
00000060: f969 cfbb 4be2 e73b 632f 0a3c e436 83bc
00000070: a57e 353d 0fd6 543c b323 04bc d914 0ebd
00000080: 73c6 6abc 937d 6f3c ba2f 25bd a0de 433c
00000090: 55a8 57ba 9cdf f3bc 60cf ab3c 28a8 e03c
000000a0: 3793 d83c e7d3 b5bc 3925 9bbc 9a45 993c
000000b0: 7584 bebc 4de4 9e3c b3c1 c03c 4a34 0b3d
000000c0: 457a 17bd d124 bd3c 6101 57bc c4bd f73c
000000d0: f192 08bd 1020 6c3c dd4a 33bc 1bbe 473c
000000e0: 66d6 ccbc c097 9dbc a731 30bd 01c0 e0bb
000000f0: 8b21 ec3c 433e c7bc d792 08bd 86f3 e3bb
00000100: 2543 05bc 3593 d73b 1ec9 03bb 2682 bc3c
00000110: c705 af3c 6603 4fbd dc57 1c3c f901 5f3c
00000120: 34a8 90bc 5231 c9bb a18c e03c 02f5 f1ba
00000130: c5c5 933c 9c6a 1fbd 779d 8d3c 61a0 37bd
00000140: e7ad b83c d446 2f3c df3a 983c 722d 28bc
00000150: 8559 143d 5177 88bc dc1e 54bc 1b38 d1bb
00000160: 27ca 0fbd 5043 5abd 569f 05bd 3302 103d
00000170: dcf5 51bc 9cfb c3bc 8076 373b 7d33 c2bc
00000180: 43be 2138 70c3 f63b 00cd a9bc 12b5 19bd
00000190: e5b0 d23c 4711 8e3c a72b f3bc c31a 1d3d
000001a0: e5a4 23bc 929d 1fbd f478 16bd f90a 88bc
000001b0: 4287 a63c 9664 253d 8bac ac3c 4760 b23c
000001c0: 93f4 9ebc fae4 afbc 456e abbc 0615 afbc
000001d0: 97fa 13ba 9bdc 4a3c 9ed6 453b 619c 93bb
000001e0: a1a0 b43c e584 23bd 3f73 f03b 31b9 94bc
000001f0: 9631 9c3c 0e8d e3b9 4b52 b6bc e338 153d
00000200: 4b96 ed3c 9b59 363c 2404 743c 2a83 eabc
00000210: 168c 733c b54d 0f3d a2bb 28bc 670d d7bc
00000220: 35c8 e8bc bea5 4b3d fd5d 17bd 9b23 a63b
00000230: dcb0 a5bc 2a26 683b 3dd2 fcbc ee70 1dbd
00000240: 90bc 18bd 4f27 d63c 330b ec3c 2249 f9bc
00000250: 06c8 9dbb 40ef a5bb 782d e53c 97a6 b1bc
00000260: dcfa ae3b 376b bcbc 80d2 353c f84b 4b3c
00000270: 368e f4ba d8cd 83bc 1267 0dbd d39a fd3a
00000280: 100c c93c dbbe a1bc 8b47 52bc f589 75bb
00000290: 0d5c 813a 9756 7e3b 304b a0bc 98ff dfbc
000002a0: 2d69 ac3c 0f5a 0ebc 675a 5bbd a3f4 1fbd
000002b0: 584b d2bc bb61 4bbb a9ca c13c 066c f7bc
000002c0: 0b4e b9bc 5e04 36bc de7c 3dbc 3ddc 30bd
000002d0: 9f63 db3c a2a7 65bc 762c 27bd 23c6 b9bc
000002e0: becd 4f3c 1c48 fc3c f45f d03c fe58 c63b
000002f0: 7330 33bc 455c 2fbc 9269 83bc 8c6a a0bc
00000300: 201a a1bc dfa4 4b3c e796 4d3c dc53 bf3c
00000310: 48ac 0a3d 13f2 c2bc 0d54 11bd 9016 babc
00000320: d075 db3c baff 913c 8436 de3c 3ce5 afba
00000330: 676d 87bb 84e0 183d d114 da3c 9270 1abd
00000340: 2ee7 9ebc cc06 d0ba 7667 b0bb abad 45bd
00000350: 989f 933c 1fcb f7bc 1b7e db3c b407 17bd
00000360: 345d c63c 56b9 843c 666a 1fbc 81ff 7dbc
00000370: ad03 a53c 6e24 ef3c 9dde 48bc 0fc2 99bc
00000380: 4bed a53c cb20 d53a 678b b3bc 82a4 8abc
00000390: 12a9 8cbc f043 be3c 0b70 dcbb 7965 3b3c
000003a0: bac8 af3c c0fa 583b 298f 743c 8b58 36bd
000003b0: 7f2a bbbc 35e3 fb39 9b56 8f3c 9121 bbbc
000003c0: ce2b 36bc 3ebf 363c d20d 2abc b0d1 44bd
000003d0: 48af 07bd b3f5 3cbc d849 e93c 8f9f f7bb
000003e0: ed60 04bd 47e0 e8bc cbbf 1fbc 7c29 00bd
000003f0: 36b7 d6bc 47e0 e3bc e8d1 943a 2934 b6bc
0.013573034 0.007803996 0.0071637006 -0.0010465506 0.01299562 -0.028016381 -0.03462534 0.023099907
-0.004874705 0.012612385 0.0136754075 0.004822547 0.028162394 -0.016846098 -0.0325325 -0.0096599655
-0.038520977 -0.03198356 -0.032372016 -0.025531074 -0.030272944 -0.005890931 -0.018247435 0.009824848
-0.0063297716 0.007076537 0.008434149 -0.016017385 0.04431023 0.012990489 -0.008065152 -0.03468785
-0.014329541 0.014617342 -0.04032872 0.011954933 -0.00082266825 -0.029769711 0.020972908 0.027423933
0.026437385 -0.02219577 -0.018938648 0.018709946 -0.02325652 0.019395972 0.023529863 0.033985414
-0.03698184 0.023088844 -0.013122887 0.030241854 -0.03334326 0.014411941 -0.010943142 0.012191321
-0.025004577 -0.0192374 -0.043016102 -0.006858826 0.028824588 -0.02432168 -0.033343162 -0.0069565205
-0.008133684 0.0065788277 -0.002010889 0.023011278 0.02136506 -0.05054035 0.009542432 0.01361131
-0.01765833 -0.0061399126 0.027410807 -0.0018459859 0.01803864 -0.03892003 0.017287 -0.044830684
0.02254386 0.010698039 0.01858276 -0.010264741 0.036218185 -0.016658457 -0.012946811 -0.006384862
-0.035104897 -0.05328685 -0.032622658 0.035158347 -0.012814965 -0.023923688 0.0027994215 -0.023706192
3.8562586e-05 0.007530622 -0.020727634 -0.037526198 0.025719116 0.017342223 -0.029683901 0.0383556
-0.009988044 -0.03896863 -0.036736444 -0.016606795 0.020328168 0.04037913 0.021078369 0.021774424
-0.019403731 -0.02147149 -0.020926604 -0.02137233 -0.0005644946 0.012381698 0.0030187736 -0.004504726
0.02204925 -0.03992166 0.007337957 -0.018154712 0.019066613 -0.00043401908 -0.022256037 0.036431205
0.02900233 0.011129762 0.014893565 -0.028626997 0.014864942 0.034986217 -0.010298641 -0.026251508
-0.028415779 0.04971861 -0.03695487 0.0050701625 -0.020225935 0.0035423138 -0.030861968 -0.038437776
-0.037289202 0.02614179 0.028813934 -0.03043038 -0.0048151044 -0.005063921 0.027975783 -0.021685882
0.0053399634 -0.023000343 0.01109755 0.012408249 -0.0018658105 -0.016089365 -0.034522124 0.0019348509
0.024541885 -0.019744327 -0.01283444 -0.0037466262 0.0009869352 0.0038808936 -0.019567102 -0.027343556
0.021046245 -0.008688464 -0.05355301 -0.039051663 -0.025670692 -0.0031033594 0.023656206 -0.030202877
-0.022620222 -0.01110944 -0.011565415 -0.043178786 0.026780901 -0.014017018 -0.040813886 -0.022677487
0.01268333 0.030796103 0.025436379 0.006053089 -0.010936844 -0.010703151 -0.01604155 -0.019582056
-0.019665778 0.012429445 0.012548185 0.023355417 0.033855706 -0.02379707 -0.035480548 -0.022715837
0.026789576 0.017822135 0.027125604 -0.0013419758 -0.004132915 0.03732349 0.026621254 -0.03770501
-0.019397344 -0.0015871166 -0.0053834273 -0.048261326 0.018020436 -0.030248223 0.02679353 -0.03687258
0.024214365 0.016201656 -0.009729957 -0.015502811 0.020143354 0.029192176 -0.012260106 -0.018769292
0.020254752 0.0016260383 -0.021917058 -0.016924147 -0.017170463 0.023225754 -0.0067272238 0.011437767
0.021458019 0.0033108443 0.01492671 -0.044518035 -0.022847412 0.00048043733 0.017497351 -0.022843154
-0.011118842 0.011153994 -0.010379272 -0.048051536 -0.033126146 -0.011533189 0.028477594 -0.0075568627
-0.032318998 -0.028427256 -0.009750317 -0.031289563 -0.026210409 -0.027816905 0.0011354061 -0.022241669

fc2.weight f4 [128, 256]
00000000: 0ac7 ddbc 3cd2 203d 159f 673c e28d 603d
00000010: 42cd dbbc 3d8d 5dbd ab3b 063d c88d 053c
00000020: 4042 99bc dd68 10bd d1b5 80bd e731 b2bd
00000030: a3e7 05bd 347b cd3c 338f 5e3c 245f 4e3b
00000040: 4d7d 33bd 50ad 303d 63ca 5dbc d4e7 2f3d
00000050: 5885 ec3c 5e3b 6b3d 05ef 7e3d 1af7 5ebd
00000060: d74e 37bd ccf8 17bd 8aa3 72bd bb3c 81bc
00000070: 18be 06bd ac1d 253d 07e2 363d c379 573d
00000080: 5f52 10bd 097d 2fbd 8910 3bbc 0371 9ebb
00000090: 6668 683c ce1b 62bc 1fa3 f73c 23fa 05bd
000000a0: 1164 36bd 40ee 7abd 0c10 e23c 3c75 c83c
000000b0: 40eb babc fa37 39bd a464 3e3d f36e 853b
000000c0: 5e77 293d 71b5 9bbd c853 f33c 208e 163c
000000d0: e75a b23c d834 82bc 2eae 613d f8c4 7bbd
000000e0: b07c 1c3c d4a3 86bd 8f70 9c3c 4930 a3bc
000000f0: 3392 15bd 0a1d 13bd 12e3 423d 9fdf 77bb
00000100: a477 3e3d 288d 6cbd 4338 a5bc 9479 d7bc
00000110: 5e3c 12bd 7ee9 bd3c 4f55 813d 08d1 28bd
00000120: 5dbd e33b cc86 993c 6b12 f33c b8d7 65bd
00000130: f4c2 8abc 1f6e 71bc cb85 6d3b 8657 cfbb
00000140: 8aa6 2c3d 00b7 363c 7cde 0bbd 6a2a d63b
00000150: a676 98bd 5113 5a3c 6c32 67bd e805 093c
00000160: bcd6 3b3d 3714 36bd e70e 3f3d 45eb 0cbd
00000170: ea28 053d 6afa 7f3d 4489 c93b 40ff fbbc
00000180: 4360 62bd a790 5ebd a31a 45bd 79ab a9bd
00000190: 06f9 38bd 1023 48bd 207a 333d 090e 5fbd
000001a0: 0363 103d 9f09 5ebd 446e 38bd 6b70 fe3a
000001b0: 5410 66bc e65c c2bc 0196 86bd 9d1e 5dbd
000001c0: fb2e 95ba f43a 533d 4b22 d7bb 1fdd 82bd
000001d0: 6fd3 f4bc c46f 86bd cc63 933b c6a8 b43b
000001e0: ddc1 ce3c 6197 e5bc 004b 283d 918b 00bd
000001f0: 989f c3bc 5451 64bd 370e a7bc 2746 4c3a
00000200: 2c1b 4bbc 7cbe a83c 2069 dcbc bc15 fe3c
00000210: 3e99 d0bc 6bad 8e3c 9b26 643c e086 a4bc
00000220: 803c 6b3d bd1a 683d 41cf 5cbd cf3d 11bc
00000230: 60d5 2cbd dcf8 5d3b 72f2 9fbc 3842 143d
00000240: 5097 86bb 66ac 94bd 640c 793c d3ea 90bb
00000250: 080f fa3c f247 16bd fe88 1f3d 18d0 dfbc
00000260: e608 9abc 7863 453c 0c03 10bb 2797 a73c
00000270: 579b f6bc 6c7b f6bb 9587 4c3b 352b 33bd
00000280: be08 4e3d 3ded bf3c b9e8 4bbd 6ab1 69bd
00000290: c239 363d c6fa ce3c a76c f1bb df02 5f3d
000002a0: 7f15 22bd fe47 68bd 62e2 583d ac94 61bc
000002b0: 1d7e e73b 0461 08bc 068f 86ba 968a bd3b
000002c0: 7fae 9cbc b072 583d 71e8 e6bc 6011 d0bc
000002d0: 743a d2bc 9792 e23b 406e 213b 6be2 f1bc
000002e0: bcc0 f1bc 92bd 51bb 2b77 95bc 7bac 5b3b
000002f0: 6d52 e33b 386a b83c 0675 cebc f3bc 19bd
00000300: 6bde 903b 581c 5abc eb2c dbba 1825 07bd
00000310: 7226 8dbd 4a7b c8bc cf72 40bc a0b9 03bd
00000320: 29f2 813d bbf5 6cbd dc44 f2bc 9b2f 36bd
00000330: a196 1a3d ad24 b5bb 322e fc3c 8e48 bc3c
00000340: 4ed5 423d a671 03bd 1f52 e53c d7a0 15bd
00000350: 29ec b5bc 872d 673d ec8d 3cbd 5caa 313c
00000360: 41d0 25bd c9a3 793b 4649 8cbd 9022 c7bc
00000370: e526 ea3c 97d9 d63b 49fb 233c 1911 8b3d
00000380: 5811 62bd 5ded db3c b0cb 43bc 84d8 f4bc
00000390: 9623 cbbc f017 71bd 596d dd3c d8c2 6abc
000003a0: d782 5f3b 3876 55bd 147e 0d3d 808e 83bd
000003b0: ec3c 00bd f364 fcbc 4c44 3bbd 612c 713d
000003c0: bc49 80bd 75e7 0cbb fbca 2c3d 1de4 33bd
000003d0: 9818 b8bb d031 be39 97d9 26bd 57fc 563d
000003e0: 7163 dfbc 7930 6cbd 64bc 53bd 9a5a 7a3c
000003f0: e815 80bd 9bc0 b93b 1c8c 09bd 10a3 7e3d
-0.027072448 0.039262995 0.014137049 0.05482281 -0.026831273 -0.054089773 0.032771748 0.008151479
-0.018708348 -0.035256255 -0.06284679 -0.08700924 -0.03269161 0.025083162 0.013583946 0.0031489814
-0.043820668 0.043134034 -0.013537022 0.042945698 0.028872177 0.057429664 0.062239666 -0.054434873
-0.044752922 -0.037102506 -0.059237994 -0.015776029 -0.03289613 0.0403115 0.04464915 0.052606355
-0.035234805 -0.042843852 -0.0114175165 -0.0048352494 0.014185047 -0.0138005745 0.03022915 -0.032709252
-0.044529025 -0.06126237 0.027595542 0.024469964 -0.022817254 -0.0452194 0.046482697 0.004072064
0.041373603 -0.076029666 0.029703036 0.009189159 0.021771861 -0.015894338 0.05509775 -0.06146714
0.009551212 -0.065742165 0.01909664 -0.019920485 -0.03651638 -0.035916366 0.047579832 -0.0037822498
0.046500817 -0.057751805 -0.02016843 -0.02630309 -0.035702102 0.023182627 0.063150994 -0.041214973
0.006950064 0.018741034 0.029671868 -0.05611393 -0.016938664 -0.014735728 0.0036243077 -0.0063275723
0.04215101 0.011152029 -0.034147725 0.006535818 -0.074445054 0.013310269 -0.05644457 0.008363225
0.045859084 -0.044452872 0.04664507 -0.034404058 0.03250972 0.062494673 0.0061503965 -0.030761361
-0.055267584 -0.05433717 -0.048121106 -0.08284659 -0.045159362 -0.048861563 0.04381764 -0.054456744
0.035250675 -0.054208394 -0.045027032 0.0019412165 -0.014041979 -0.023725938 -0.0657158 -0.053984273
-0.0011381799 0.051569894 -0.0065653673 -0.06389832 -0.029885976 -0.06564286 0.0044979807 0.0055132834
0.025238926 -0.028026285 0.04108715 -0.0313831 -0.023879811 -0.055741623 -0.02039252 0.0007792436
-0.012396615 0.020598643 -0.026905596 0.031016223 -0.025463697 0.017416677 0.01392522 -0.020083845
0.057430744 0.056666125 -0.05390859 -0.008864834 -0.042195678 0.0033870256 -0.019524787 0.036195964
-0.0041073933 -0.07259445 0.015200708 -0.0044225245 0.030524746 -0.036689706 0.038949005 -0.027320907
-0.018803071 0.012047641 -0.0021974472 0.020457817 -0.030103369 -0.0075220373 0.0031208743 -0.043742377
0.050301306 0.023428554 -0.04978249 -0.05705396 0.044488676 0.025266062 -0.0073676887 0.054446097
-0.03957128 -0.056709282 0.05295027 -0.013768356 0.0070645944 -0.008323912 -0.0010266013 0.005784343
-0.019126175 0.05284375 -0.028187009 -0.02539891 -0.025662638 0.0069144475 0.0024632365 -0.02952691
-0.029510848 -0.0032003862 -0.0182453 0.0033519554 0.006937316 0.022511587 -0.025202285 -0.03753371
0.0044210455 -0.013312422 -0.0016721761 -0.03299436 -0.068920985 -0.024472851 -0.0117461225 -0.032159448
0.063450165 -0.057851534 -0.02957385 -0.044478994 0.037741307 -0.0055280537 0.030783746 0.022983816
0.047566704 -0.032090805 0.02799326 -0.036530342 -0.022207337 0.056439903 -0.046033785 0.0108438395
-0.04048181 0.0038092008 -0.06849913 -0.024308473 0.028583 0.0065567004 0.0100086415 0.067903705
-0.05519232 0.026846582 -0.011950418 -0.029888399 -0.024797242 -0.05886072 0.02702968 -0.014328681
0.0034105086 -0.052114695 0.034544066 -0.06423664 -0.0313081 -0.030809855 -0.04571943 0.058880214
-0.06264064 -0.0021500264 0.042185765 -0.043918718 -0.005618166 0.00036276737 -0.040734854 0.052486744
-0.027269097 -0.057663415 -0.051693335 0.01528039 -0.06254178 0.0056687123 -0.033580884 0.062167227

fc2.bias f4 [128]
00000000: d457 21bd 5440 aabb 5afe 5bbd ee4c 993d
00000010: 7360 e73d 108c 80bd fc7d 25bd b341 3d3d
00000020: ccb9 a63d 8fcc 64bd ad35 08bd 2543 203e
00000030: fffe 00bc 069d adbb c11a bd3c 9d0c 4dbc
00000040: 436c 083d 7ac7 8c3d 1233 0c3d 0bfe 163d
00000050: 3fa2 95bc b121 c03b 3840 0f3d 1d67 28bd
00000060: 4492 90bd 4437 3ebc 5f56 edbc b8e4 debc
00000070: bf26 723d 213d 083d d302 efbc 978a 153e
00000080: cd0e e73d 8e99 0b3d 6c46 80bc 2ae3 d93d
00000090: 67c2 8dbd 02bb d43c 6638 2cbd a777 f0bb
000000a0: 96a2 bbbc 2fdb e2b8 9a10 94bd 21b5 143d
000000b0: 4c4f 843d d676 cd39 9d26 4a3d 6256 083d
000000c0: aea8 5c3c c5e9 adbd b474 e8bd 7ce4 c63d
000000d0: 23b5 9dbb 9fb6 093d 9bfd 4bbd 447f 4f3d
000000e0: e72a 98bd 5f32 cf3c 00d6 db3c d7fa ad3c
000000f0: 9f64 a23d 8d63 873d e7b7 98bc 0ce3 29bd
00000100: 0608 a73d baf6 59bd 9daa 88bd b677 023e
00000110: 9031 e03d 4d7e 76bd 5b71 c3bc d46d 293d
00000120: 0375 023e 2086 da3c 3c17 e83d 228f 743d
00000130: bf3a ba3d 7933 2e3d 92de 773d f868 a7bd
00000140: 8bcc c53d a63b 3a3d 5f9c 65bd 860c dd3d
00000150: 1513 9ebc 074a 6fbd 9707 153d aac5 1d3c
00000160: 52a7 f93b 743c f3bc 86d6 cdbc 4bb2 22bc
00000170: 4fb2 973d fe46 103d 7624 83bd 40ff 3e3d
00000180: 17bd cd3c b274 d73b c67d 283d 0725 ae3a
00000190: 758c 043b df59 dfbd 826d be3d 9dae b53c
000001a0: 057f 68bd bfe6 90bd aeca a13c 62d9 c83d
000001b0: 5186 803d c2d0 91bc 8ac1 003e c40d cc3d
000001c0: e119 723d 6777 6a3c 5797 053e 5d63 10bd
000001d0: 67ac 8a3d 6e28 bcbd 342b b93d 29db 1e3d
000001e0: 8975 793c 79ce 08bd 36b2 1b3d 531e 07bd
000001f0: 931b 4b3d e30e a8bc bcd2 50bd 4882 f33a
-0.0393904 -0.005195657 -0.053709365 0.07485376 0.11297693 -0.06276715 -0.04040335 0.046205234
0.08140907 -0.055859145 -0.033254314 0.15650614 -0.007873296 -0.0052982597 0.023084046 -0.012515214
0.03330637 0.06873985 0.034228392 0.036863368 -0.018265842 0.0058633913 0.034973353 -0.04111396
-0.07059148 -0.011609856 -0.028971849 -0.027208671 0.059118982 0.033261422 -0.029176151 0.14603649
0.1128212 0.034081988 -0.01565858 0.10639031 -0.06921845 0.025968079 -0.042045973 -0.0073384824
-0.022904675 -0.00010817346 -0.07229729 0.03630555 0.06460437 0.00039189187 0.04935323 0.033285506
0.013467951 -0.084918536 -0.11350384 0.09711549 -0.004812853 0.033621427 -0.049802404 0.05065848
-0.07430058 0.025292573 0.026835442 0.021237774 0.07929348 0.06610785 -0.018642379 -0.041476294
0.08155827 -0.053213812 -0.06673167 0.12740979 0.10946953 -0.060179044 -0.023857763 0.041364506
0.12739949 0.026675284 0.113325566 0.059706815 0.09093236 0.042529557 0.060514994 -0.08174318
0.09658154 0.04546704 -0.05605733 0.10793404 -0.019296208 -0.058420207 0.03638419 0.009629646
0.007618823 -0.029691912 -0.025126707 -0.009930204 0.074070565 0.035223953 -0.06403439 0.046630144
0.02511458 0.0065751905 0.041135572 0.0013286181 0.002022532 -0.109058134 0.09298231 0.022177989
-0.05676176 -0.07075261 0.019749966 0.098070875 0.06275619 -0.017799739 0.1257383 0.09963563
0.05910671 0.014310694 0.13046013 -0.03525101 0.067711644 -0.09187399 0.090414435 0.038783226
0.0152257765 -0.033400033 0.038011752 -0.032987904 0.049586844 -0.020514911 -0.050982222 0.0018578256

fc3.weight f4 [64, 128]
00000000: 490d 083c 534f 1e3d a0b7 10bd 152e 603c
00000010: d234 84bd ae9f 773e ab86 7cbc 420f 0a3e
00000020: 2329 9a3d f82b 96bd e82c a2bd e8e6 02ba
00000030: 778d 483b fb62 5abc 86aa 6b3e 4eb6 8e3e
00000040: 077a 6cbd 4ad7 ca3b c1ae a63d 663b f8bc
00000050: 7757 923b 8f71 b6be 2272 47bc 1b51 db3c
00000060: 54ba 823d d070 a3be 9ee4 09bd 7353 a1bc
00000070: 27f6 1a3e fc71 d53c e10f ef3b 9749 8dbd
00000080: 2470 7bbd e57d 7cbc f5a8 3f3e 915a 5f3c
00000090: d8a4 493e 8981 933d 7d2c 8c3d f9a4 a2bc
000000a0: 3f2f 453e d866 2f3d 0a4c 28bd 391c f2bc
000000b0: e5f1 96bd 5177 303e c313 a63c 8b3f da3a
000000c0: 8161 0ebd 31bf e03c 4ced cebd fe70 11bd
000000d0: 7849 a4bc 93a4 393d a200 84bd f7ff 213e
000000e0: 2340 cd3d 4bed 37bd 71c4 6d3e f234 c73d
000000f0: 8df2 e6bd 68e3 903d 1d29 8d3d 5e12 e5bd
00000100: adad 993d b9a6 c3bb 78f6 613e 6029 de3d
00000110: ef7b c23d 7cc5 60bd d2f3 fdbb 6a39 333e
00000120: cecd b93d 1728 233e 1e89 94bc 3167 a1bd
00000130: 3dce 20be bf9d ee3c 3fae 4e3d 8a47 db3d
00000140: aa85 4dbd c143 8d3b f925 983c 347d c73d
00000150: 98ae 213d cffd 5b3e 9fe4 17bd 6aeb bebe
00000160: 1084 133e 279e 4cbd 2c10 be3d 8f26 2e3e
00000170: 62e8 fabd 17b8 d53d 109c e5bb b0ea e53c
00000180: ab5a 8c3c 4665 043d 0dd6 8d3c cb5d b53c
00000190: c6ea 54bd 42ad b23e 4d99 23bd 66cc 013d
000001a0: 602e 253e 778d 643e 8fe5 953d 1abb 2b3b
000001b0: 2b22 323c c664 42bd af92 303d dd66 8fbc
000001c0: eb31 99bd 182a bd3d ada0 5a3c d099 e83d
000001d0: b338 72bd 2500 283d 971b 2c3b 6a57 f53d
000001e0: 61c8 64bd 4ed7 ca3d 449a 18be eabc cd3d
000001f0: cc7f d53c 24c5 1cbc 4ec3 9d3d c6db e5bc
00000200: 3b38 04bd 2c8b 2bbd 1d51 5b3d 09b8 923d
00000210: c9a1 e23c 8766 023d 3539 6b3c 8708 aabd
00000220: 8f2a 2b3d 656f 51bc 2589 cc3c 5f43 813d
00000230: 0ea8 9dbc 8f49 843d 10e3 223e 49e3 b23d
00000240: 8481 8ebc b323 303d 2c9f 853d 04a9 8339
00000250: a441 16bd 0644 b5bd 0284 e3bc 15a1 2e3d
00000260: e1ae 903c 4498 0bbe fed4 1e3d eef4 9fbd
00000270: 7814 8cbd 6c33 aebd f46b 4fbd dd5a a6ba
00000280: 4274 f8bc c63c 813d 4f0e 3bbb 38bd 563d
00000290: 25dc 033e 757c 273e d016 943c 0c30 1abc
000002a0: 8bbd 9b3c 0635 ccbd 8b04 e43d 7f38 0cbd
000002b0: 09d3 103e 272a 37bb a4f5 14bd 9123 e33c
000002c0: f008 343d 3f12 19ba c27f 09bb e1f6 773e
000002d0: cb9e cc3c 1d60 2ebe c37f 893e 9361 62bd
000002e0: 6252 43bd 70ee a03d b9f1 043e 967b b2bd
000002f0: 70f6 c33c b40f fcbc 668a 12be 2a00 17be
00000300: 9410 1dbe 7c3b 53bd 10a3 153e f26c 6bbc
00000310: 8970 9e3d 290e eebc bbb7 4a3e f890 86be
00000320: ec5d 53bd bca0 c7bb 1e8c 153e 1421 23bd
00000330: f27a 4bbd 62a1 d43d e2f3 463e cbb6 593d
00000340: 572e b93d 2f54 013e e80c 22bd 6480 c4bc
00000350: 3b64 38bd b83c 3bbd c27b c1bc 5545 74bb
00000360: 1aab e53d b608 633d cdb9 a5bc 0285 15be
00000370: ca50 0fbd ab5e 9dbd d4c2 08bd 5411 703d
00000380: eb90 253d 22e8 c93b a0bd d8bd bc51 37be
00000390: 098b b83c 7658 383e c278 f7bb 2dfe 693e
000003a0: 138a aebd cd3e ed3d 8cf4 ff3c 8d7c c93c
000003b0: a0d8 fd3d 4cbc 1d3e db11 2fbd 57c8 0e3d
000003c0: 93f2 803d 817f 08bb cfb1 96bd dc3f 123e
000003d0: 1a43 86bc edad e83c 0d15 f5bd 007d 223c
000003e0: 8207 763d 9bf3 f33c b748 1a3d eca1 cc3d
000003f0: 20ca e2bd a96f 19bd 3ec0 9e3d c580 0fbc
0.008303949 0.03864987 -0.03533137 0.013682862 -0.06455387 0.24182007 -0.015412967 0.13482383
0.075273775 -0.07332605 -0.079187214 -0.0004993514 0.0030601898 -0.013329263 0.23014268 0.27873462
-0.05773356 0.0061902152 0.081388004 -0.03030176 0.004465993 -0.35633513 -0.0121732075 0.026772073
0.063831955 -0.31922007 -0.033665292 -0.019693112 0.15132962 0.026055329 0.007295594 -0.06898802
-0.061386243 -0.015410875 0.18716796 0.013632433 0.19691789 0.07202441 0.06844423 -0.019854056
0.19256304 0.04282269 -0.04108814 -0.029554473 -0.073703565 0.17233016 0.020273095 0.0016651017
-0.034760956 0.027434917 -0.101038545 -0.03550815 -0.020054564 0.045322966 -0.06445433 0.15820299
0.10021999 -0.044904035 0.23219468 0.097268954 -0.11276732 0.07074624 0.06892607 -0.11185144
0.07503829 -0.0059708026 0.22066677 0.108477354 0.09496295 -0.054875836 -0.007750013 0.1750237
0.09072457 0.15933262 -0.018131789 -0.0788101 -0.15703674 0.029127954 0.050459143 0.10707004
-0.0501763 0.0043110554 0.018572794 0.097406775 0.039473146 0.21483539 -0.037083264 -0.37288982
0.14405847 -0.049955513 0.09280428 0.17006896 -0.12251355 0.10435503 -0.0070071295 0.02806601
0.017133078 0.032323144 0.017313981 0.02213945 -0.05198171 0.3489781 -0.03994112 0.03168907
0.16130972 0.2231959 0.073191755 0.002620405 0.010872404 -0.047459386 0.04310864 -0.017505104
-0.07480224 0.09236544 0.013343972 0.113574624 -0.059136104 0.041015763 0.0026261562 0.119795635
-0.05585516 0.09904347 -0.14902598 0.10045798 0.026061915 -0.009568486 0.07703267 -0.028058898
-0.032280188 -0.04188077 0.053544153 0.07164008 0.027665036 0.03183606 0.014356901 -0.08302408
0.041788634 -0.012782906 0.02496774 0.06311678 -0.019245174 0.06459343 0.1590693 0.087347575
-0.017395742 0.043002795 0.065245 0.00025112194 -0.036683694 -0.08850865 -0.027772907 0.04263409
0.017661514 -0.13632303 0.038777344 -0.078103885 -0.068398416 -0.08505902 -0.05064006 -0.0012691874
-0.030328874 0.0631042 -0.0028542464 0.052426547 0.12876947 0.1635607 0.018077284 -0.009410869
0.01901128 -0.09971051 0.11133679 -0.034233566 0.14143004 -0.0027948709 -0.036367074 0.02772692
0.043953836 -0.00058392057 -0.002098069 0.2421527 0.024978062 -0.17028852 0.26855287 -0.055268835
-0.04768599 0.07857978 0.12982835 -0.087149784 0.023921221 -0.030769207 -0.14310607 -0.14746156
-0.15338355 -0.0515704 0.14612985 -0.014369236 0.07736308 -0.029059486 0.1979665 -0.26282477
-0.051603243 -0.006092159 0.14604232 -0.039826468 -0.049677797 0.10382344 0.19428971 0.05315284
0.09042042 0.1262977 -0.03956309 -0.023987003 -0.045017462 -0.045712203 -0.023618583 -0.003727277
0.11214276 0.05542823 -0.020230198 -0.1460152 -0.034989156 -0.07684072 -0.033388928 0.058610275
0.040421408 0.0061617056 -0.10583043 -0.17902273 0.022527235 0.18002495 -0.0075522372 0.22850867
-0.08522429 0.11584244 0.031244539 0.024595523 0.123948336 0.15403861 -0.042741638 0.034859028
0.06296267 -0.0020827951 -0.07358133 0.14282173 -0.016389418 0.028403247 -0.11966906 0.009917498
0.060065754 0.029779246 0.037667003 0.09991822 -0.110737085 -0.037460003 0.07751511 -0.008758728

fc3.bias f4 [64]
00000000: 44e0 99bd 4826 ad3d 2714 a6bc 7cfc fdbb
00000010: 9fea f33d 4f71 c2bd 51f6 0dbd e72e 85ba
00000020: 6d7f ef3c 1df0 6c3e 81d6 f5bd 9dc0 5cbd
00000030: b372 873d efd3 24bc a6d6 de3c 3f77 303b
00000040: f351 793c f1dd 06bd 7c78 e9bc 989e 7dbd
00000050: 01ca 9c3d 0e92 8a3d ad86 fa3b 2531 59bd
00000060: fea3 d6bc 26b8 c03c e219 223b 3af6 8abd
00000070: 083d d63d fe37 f93d 1bf1 69bd e44d 40bd
00000080: c1ca 033e 5e86 bd3d 0351 bb3c 6e4d 4abd
00000090: b525 89bb 7d8d 283d 0956 1d3d 8350 513d
000000a0: 1f68 91bd efde ffbb 7c88 573e faa6 76bc
000000b0: c949 603d 3262 763c 8433 063d 6211 173e
000000c0: db86 2d3c fbbf 90bc df95 263e 41c2 543d
000000d0: 114c d53d 8322 123e d72b 2ebd f564 aabc
000000e0: afe9 b93d be85 46bd 7f9a 343d 2dc2 0b3d
000000f0: 24cd c03c d7f2 d73c c17b 6c3b 80f2 e43d
-0.075134784 0.08454567 -0.020273281 -0.0077510457 0.11909985 -0.09494268 -0.034658734 -0.0010161073
0.029235566 0.23138471 -0.12003804 -0.053894628 0.06613674 -0.0100602945 0.027201962 0.0026926545
0.015217292 -0.032926504 -0.028499834 -0.061918825 0.07655717 0.06766139 0.007645449 -0.053025384
-0.026201244 0.023525309 0.0024734666 -0.06785245 0.104608595 0.12168883 -0.0571147 -0.046949282
0.12870313 0.09254144 0.022865778 -0.04939025 -0.004185403 0.04115056 0.038412128 0.051102173
-0.07099938 -0.007808558 0.21048158 -0.015054459 0.054757867 0.01503806 0.032763973 0.14752725
0.010591234 -0.017669668 0.16268109 0.051943067 0.10414899 0.14270978 -0.042522278 -0.020800093
0.09077775 -0.04846739 0.04409265 0.034120727 0.023535319 0.026360912 0.0036084505 0.11179066

fc4.weight f4 [10, 64]
00000000: 8c2d 28bd 0814 083d 9010 043e 0021 703e
00000010: baec 8b3c d45d 863d c41e cabb 113a 03be
00000020: 2131 0bbe effb cd3d ea31 b2bc 8eae 6a3e
00000030: 0505 113c b9f4 f1bd e6c6 46be 00cd c0be
00000040: 105a 183e 29d9 ec3c b362 e5bd 7d76 12be
00000050: 633b 5abe 07df dc3d accb 0abe c134 22be
00000060: d593 803d e805 05be 67f6 87bc 970d 6d3b
00000070: 7a2c a7be 8940 1f3e 8ac8 edbb ea27 543e
00000080: 179b dabd 7e9b 2e3d b929 4c3b 5aea 3a3e
00000090: 3ac5 25bd 0b68 0dbd 7490 31be 8671 a1bd
000000a0: de66 eabd 0eaa 34be 5c51 26be 1a3d 25be
000000b0: f237 06be fab6 21be 013b 0d3d 0596 993d
000000c0: 486d 183d 7965 163e 364b 36be 330c 8b3d
000000d0: 0c33 4bbe f9b9 8dbe bd96 cd3c c3b2 85bd
000000e0: 519a c6bc 1f85 a93d f392 0dbd 1c03 4dbe
000000f0: 4213 2a3e ad93 273e 70f8 debd f709 0a3e
00000100: 914c b0bc c9a5 94be 598d 383e e9db f03c
00000110: baf5 23be d8ac 563d 11d7 9c3d 4119 74be
00000120: 02a1 833d 4fff 67be 49fc 6abd b25a 63be
00000130: 54d5 c9bd 026f d5bd 62c2 74bc 4405 3c3e
00000140: 9d85 903d 0e9c dbbe e045 913d ec1e 03bd
00000150: 733e 183e c0e3 13be e7b1 2e3e 21af 833e
00000160: 226d e5bd f9c3 cd3d 6c2b a0bd 2455 ec3c
00000170: 97dd c83d e84c 9dbe 6c4e 08be 0cb7 373e
00000180: b9cf 073e 9665 463e f232 3bba e466 06be
00000190: aefa 9a3d 4a3f 463d 3708 2e3d 42a5 7dbd
000001a0: 22c1 83bd 3cfb d3be 2839 85be 16d8 39be
000001b0: 2877 433e 38a0 053e 9ec3 debd 862c 7ebd
000001c0: 01b0 69bd 4406 323e cc8d ea3c 488f f5bb
000001d0: 41e3 323e c99d ff3d b2ad 14be e354 f6bd
000001e0: 75cb 62bd f56d bfbd 9e07 d53b c655 a13d
000001f0: 7217 a73d 4862 9dbd 83f5 9ebe dfcf 52be
00000200: b122 483e cf69 103e 281a 15be 61a2 c0bd
00000210: e607 e53c 0db9 86bd f7de bf3c 7e22 0b3e
00000220: b199 4a3e 08c2 20be 8e3d cc3d 5e03 69be
00000230: e0ff e1bd 8339 81bd 08b5 18be f336 4f3e
00000240: bfb9 7c3c 5118 063e 274e 76bd e18b e93d
00000250: 1bfd 06be 08b9 213e ff9e b8bd 2166 66be
00000260: ac63 043e 4702 4fbd 737c 8b3b 81fe edbb
00000270: d641 6bbe 1954 6cbd c8eb f0bd e5f5 da3d
00000280: e343 23be fb5f 743d c1a5 24bd d8ba 063e
00000290: dc9a 4c3e d87d bb3d 396c 0e3e 9465 d53d
000002a0: 948f a3be e720 fc3c bf3e 9ebe 4a2a 08be
000002b0: 2e3e d43d b381 ebbd ff03 0abc 4756 983d
000002c0: 703e 0dbe 86b5 173e 3ccf 993d cf4b 0abe
000002d0: b984 83be 1a7c 1dbe b0f4 7cbe aa77 81be
000002e0: 35f4 bdbe 551c 12be 195e 663e b40e bdbb
000002f0: 2bbe 12bd dce3 033d 575e d3be 685b de3d
00000300: 8a65 2b3e f6a8 ba3d c54b 253c 7efd 2ebe
00000310: ce67 ebbd bdbe 863d 9086 d5bd b4eb a0bc
00000320: c2ab fa3d c5b5 9e3c d99a 503c 6b77 c0be
00000330: 3269 83bc a342 e43c 5e3d 66be 4af9 93be
00000340: 93c1 1e3e 4ebf 403e 4898 87bd 1b9f 9ebd
00000350: 2f4a 013c 048b 57be 44f1 163e bdd6 22be
00000360: 6f0d ce3d a43d c43d 72d6 8d3d b7c5 22bb
00000370: 6560 2fbe ea9c 8d3d 7f5d 4f3d 2327 bbbd
00000380: 66b7 acbd 0e7e b13c ad44 f53b c0f6 1bbe
00000390: 5d60 c63d de45 043d 31a0 58be ba9f ecbd
000003a0: 4c76 893e 3e78 173e 1ea4 d3bd d812 28be
000003b0: 0d67 9bbe 5354 2b3e 4610 86bd dd84 d93d
000003c0: 1716 f83c 2305 6dbe fb05 c33d 9c1b 9bbd
000003d0: 2a52 0a3e 2978 f53d 1ca5 95bb ed0f bdbd
000003e0: 9aa1 b93d e4d0 6a3d 0abe 5c3e 987a a13d
000003f0: 3107 cd3d adb1 40bd 7429 81be a584 4fbe
-0.041059062 0.03322223 0.12896943 0.23450089 0.017080653 0.06560865 -0.0061682183 -0.1281512
-0.1359296 0.10057818 -0.021752317 0.2291815 0.008851294 -0.11814255 -0.19411811 -0.37656403
0.14878106 0.028912144 -0.11200466 -0.14303012 -0.21311717 0.107847266 -0.13554257 -0.15840437
0.06278197 -0.12990534 -0.016596986 0.003617143 -0.3265112 0.15551962 -0.007256572 0.20718351
-0.10674112 0.042628758 0.0031152798 0.1825346 -0.040471293 -0.03452305 -0.1734026 -0.07882981
-0.114454016 -0.17642996 -0.16241974 -0.1613659 -0.13107279 -0.15792456 0.0344801 0.07499317
0.037213594 0.14687146 -0.17802128 0.06789436 -0.19843692 -0.27680948 0.025096292 -0.06528237
-0.024243506 0.08277344 -0.03456397 -0.20020717 0.16608909 0.16364928 -0.108872294 0.13480364
-0.021520885 -0.29032734 0.1802267 0.029401736 -0.16011706 0.05241093 0.07658208 -0.23837759
0.06427194 -0.22655986 -0.057369504 -0.22202566 -0.09855142 -0.10421564 -0.014938923 0.18361384
0.07056735 -0.42892498 0.07093406 -0.03201191 0.14867572 -0.14442348 0.17060052 0.2571955
-0.11202456 0.100471444 -0.07820782 0.028849192 0.0980789 -0.30722737 -0.13311166 0.1794092
0.13262834 0.1937469 -0.00071410753 -0.13125187 0.075673446 0.0484002 0.042488303 -0.06192518
-0.064333215 -0.41402614 -0.2602017 -0.18148836 0.19088423 0.130494 -0.10877155 -0.06205418
-0.057052616 0.17385203 0.028632067 -0.007493887 0.17469503 0.12481267 -0.14519385 -0.120279096
-0.055369813 -0.093471445 0.006501152 0.07877688 0.08158769 -0.07684761 -0.31046686 -0.20587109
0.19544484 0.14102863 -0.14560759 -0.09405971 0.027957868 -0.065782644 0.023421748 0.13587376
0.19785191 -0.15699017 0.09972678 -0.2275519 -0.110351324 -0.063097976 -0.14912808 0.20235805
0.015425145 0.13095213 -0.060133126 0.11403633 -0.1318249 0.1579324 -0.09014701 -0.22499897
0.12928647 -0.05053928 0.004256779 -0.0072630052 -0.22974333 -0.05769739 -0.11763722 0.10691432
-0.15943865 0.059661847 -0.040197138 0.13157213 0.19980949 0.09154862 0.13908471 0.10419765
-0.3194548 0.030777408 -0.30907246 -0.13297382 0.10363422 -0.114993475 -0.008423804 0.07438331
-0.1379335 0.1481534 0.0751023 -0.13505481 -0.25687197 -0.15379372 -0.24702716 -0.2528661
-0.37100378 -0.1426862 0.22496833 -0.005769575 -0.03582589 0.032199726 -0.41282913 0.10857278
0.16737953 0.09114258 0.010088866 -0.17088887 -0.114944085 0.06579349 -0.104260564 -0.019643642
0.122397915 0.019373784 0.012732231 -0.3759111 -0.016041372 0.027863806 -0.22484347 -0.2890113
0.1550353 0.18822977 -0.06620842 -0.07745191 0.007891222 -0.21049124 0.14740473 -0.15902229
0.10061156 0.095820695 0.06925668 -0.0024837086 -0.17126615 0.069146946 0.050626274 -0.09138324
-0.08433418 0.021666553 0.0074849934 -0.15230846 0.096863486 0.032293193 -0.21154858 -0.11553903
0.26848066 0.14791963 -0.10334037 -0.16413438 -0.3035206 0.16731386 -0.06546073 0.10621045
0.03028397 -0.23146491 0.09522625 -0.075736254 0.13507906 0.11985809 -0.0045668017 -0.09231553
0.09064026 0.05732812 0.21556869 0.07884711 0.10011137 -0.047044445 -0.2522694 -0.20265444

fc4.bias f4 [10]
00000000: 8329 8ebd 0e48 72bd 88bf 02be dd56 bd3c
00000010: c957 adbb 426a d3bc 6ec4 033d 2c8a 403c
00000020: 1281 193e bbbe f43d
-0.069415115 -0.059150748 -0.12768376 0.023112709 -0.005290006 -0.025807504 0.03216975 0.011751693
0.14990643 0.119504414
